人工智能原理/编程3/code/dqn_eval_net.pth (torch, 5245 bytes, 4 tensors)

fc1.weight f4 [128, 2]
00000000: e07f 89bd a61c 1dbf bc0c 72be 595f b53d
00000010: f5ba 953e 32e0 bdbe e560 2d3e 2596 933d
00000020: 8fa4 d7bc 7325 563d b7f9 a7be 009f a0bd
00000030: 6932 94be 74e6 fabe 0889 c0bf 8b9c 863e
00000040: 351c 95be 8365 07bf fe89 3a3a faf0 88bc
00000050: 6871 65bc 88d3 9b3d 1cfd 9b3e 7724 29bf
00000060: 16ed b9bd 2c33 103e 6084 b1bc 8c42 76be
00000070: 4546 b33e 605f a8bf 4882 dbbe 52c6 87be
00000080: 46de e6be 8385 1a3e 684c 6c3d 6532 cbbe
00000090: 0904 04bf 407f 1f3c 0bfe d8be c013 33be
000000a0: cbc0 2fbe c2ea 4d3e e79f 96be 0096 1abe
000000b0: 8c7c 45be 0079 83bb 195a c2be e08c c4bd
000000c0: ef2d 20bf 0652 34bf 844c 0ebf 4d89 8dbe
000000d0: c0c1 1ebc 7f33 31bf 6297 f33d fdf9 53bf
000000e0: 5c0f 4d3e 33f1 0bbf 2e00 00bb ac77 d8bd
000000f0: 3f9e 1f3d 867f 6dbe ba8a 6ebe b808 8e3e
00000100: 6129 7f3d 9261 cebe 88b7 c7be c72c 8bbe
00000110: 188f eebe 53ff 273e 1857 19be 5aa4 09bf
00000120: 8078 083c a910 13bd 00e0 1abf b27c 323e
00000130: fb1a df3d eb05 98bb 0430 2fbf 4f93 393e
00000140: 1c73 4ebd 17c2 d5bb 1471 6abe 21c4 24bf
00000150: 6e3e f7be 8015 bebb 74c1 86bc acb8 d3bb
00000160: 397f 363e ba02 e6be 03e4 1bbf 8a09 30bf
00000170: a8c7 d0be 9fdd f33e be2f 993d 03d2 3cbe
00000180: 6881 01be e043 1fbf 8f10 15bf 0a85 97be
00000190: 22d1 15bf 1aef 93be dfdd cdbe 21ef 1ebf
000001a0: 8019 67bc 7f5a 2a3b 765b 80be 7054 b6bd
000001b0: 8367 2c3e 6e4d 32bf e953 013e c027 e7be
000001c0: c0fd 2c3e 792c 1cbf a17d 94be 1b88 eebe
000001d0: e6a9 ad3e 9ff3 b3bf c1cf b1be 1a0b 61be
000001e0: 90f7 87be 425e 5cbe 83ef 603c b40f 5cbe
000001f0: 8878 d63d 5293 9bbe 539e 783d beb1 89bd
00000200: 28bd 12be 7d90 92be 370c f7be 26c4 8abe
00000210: 17c4 89be c622 833e 97cc f1be b90b f4be
00000220: d95c fbbe 3bc0 d93e e5c2 99bd 44f8 85bc
00000230: e773 ba3d 8368 a1be 630a 513d bc30 afbe
00000240: 5ad4 5ebe afe6 493d 135a 82bd b940 7f3b
00000250: e6d0 a03d eeb3 a6be e641 acbd 0981 403e
00000260: 469b 46bf d2a1 c93e 5fda 3d3e e3b3 7bbf
00000270: 75e4 34bd ae2d babc 8030 5bbc 1c05 b6be
00000280: 103f 15bf eaac 453e 00ad c4bc f908 16bf
00000290: d2ed 1a3b 2230 56bd 98b6 8a3e aa7c 82be
000002a0: 3b57 13bf f848 b6be ab25 a8bf 963f 7b3e
000002b0: 5aff 333b 6b5a 94bd 9853 a4be 9c7a 60be
000002c0: 5a9f 21be 8f46 fd3e 40bd c0bc 7877 38be
000002d0: f5e3 d63d 5dbf 69be 2beb a2be 7afe 033e
000002e0: 60c4 aebe 870a d23e c202 d6be 2ab1 013f
000002f0: baf5 6b3d aab8 72be 04f8 2d3e 4a9c a1bd
00000300: 58db bebb e2ec 76bd 61cd a33e e315 36bf
00000310: 2e8b a2be f41f bb3e b90c 1cbc 3d2e 71bd
00000320: 7758 a33e b15f 02bf 93e3 7abd 6031 83ba
00000330: 7b26 33be 662c df3e 1de8 0abf 0026 d03c
00000340: 3df3 b93e c34a 08be 1f46 c2be 3401 23be
00000350: 8b42 803e 584d 10c0 37a9 c8be 0272 1f3f
00000360: 47b1 93be b11d a33c f3e2 2cbd 5727 d23e
00000370: 580a 5ebd b68d 3eba 5377 01bc f2dd b0bc
00000380: be42 253e abb6 613e f929 c33e ad8f c5be
00000390: e4c2 d8be 5b09 e8be add2 1bbf 778e 7e3e
000003a0: c08d e9bb 4515 c1bd bee7 06bf bc3d 2abe
000003b0: 24ab d3bd 2c9e cf3d d50a 74be 4bc8 a43e
000003c0: 9037 34bf 00cf 8bbd 2433 28bf 1971 dabe
000003d0: e21b a8be d4b0 0a3f 9c79 12bf cd43 153e
000003e0: 56b1 de3d 76d0 83bf d8f6 5b3e 2980 54be
000003f0: 9292 4d3e 9f79 c7be 20fd c7bd ae44 13bf
-0.06713843 -0.6137184 -0.2363767 0.08856077 0.292442 -0.3708511 0.16931494 0.07206372
-0.026323585 0.052281808 -0.32807705 -0.07842827 -0.2894471 -0.49003947 -1.5041819 0.26291308
-0.29123083 -0.5288927 0.00071158994 -0.01671647 -0.014004089 0.07608706 0.30466545 -0.66071266
-0.09078424 0.1408202 -0.021669567 -0.24048823 0.3501455 -1.3154106 -0.42872834 -0.26518494
-0.45091456 0.15089993 0.057690054 -0.39686885 -0.5156866 0.009734929 -0.4238132 -0.17488003
-0.17163388 0.20109084 -0.2941887 -0.15096283 -0.19285792 -0.004012227 -0.37959364 -0.09597182
-0.6257009 -0.7043766 -0.55585504 -0.27643815 -0.009689748 -0.692192 0.11894108 -0.82803327
0.2002539 -0.54664916 -0.0019531357 -0.105697006 0.038969275 -0.23193178 -0.23295107 0.27741027
0.06229532 -0.40308815 -0.3900721 -0.271826 -0.46593547 0.16405992 -0.1497463 -0.53766406
0.008329511 -0.03590456 -0.60498047 0.1743038 0.10893818 -0.0046393774 -0.6843264 0.181226
-0.050402746 -0.0065233815 -0.22894698 -0.6436177 -0.48289818 -0.005800903 -0.016449668 -0.0064612236
0.17821969 -0.44923955 -0.60894793 -0.68764555 -0.40777326 0.4763002 0.07479809 -0.18439488
-0.12647021 -0.62212944 -0.5822839 -0.29593688 -0.58522236 -0.28893358 -0.40208337 -0.6208363
-0.014105201 0.0025993881 -0.2506978 -0.08902824 0.16836362 -0.696494 0.12629665 -0.45147514
0.16893673 -0.6100536 -0.29002097 -0.46588215 0.33918685 -1.4058722 -0.34728816 -0.21976891
-0.26556063 -0.21520332 0.013728979 -0.21490365 0.10472208 -0.30385834 0.060697865 -0.06723355
-0.1432997 -0.2862586 -0.48251507 -0.27102774 -0.26907417 0.25612468 -0.47226402 -0.47665194
-0.49094275 0.42529473 -0.07507876 -0.016353734 0.09104138 -0.3152505 0.051035296 -0.3421687
-0.21760693 0.049292263 -0.063648365 0.003894849 0.07852344 -0.3255915 -0.08411007 0.18799223
-0.7758068 0.39381272 0.18540333 -0.9832136 -0.044163186 -0.02272686 -0.0133782625 -0.35550773
-0.5829935 0.19304243 -0.024008274 -0.5860744 0.0023640287 -0.052291997 0.27092433 -0.25485736
-0.5755498 -0.35602546 -1.3136495 0.24535975 0.0027465434 -0.07243808 -0.32095027 -0.21921772
-0.15783444 0.49467894 -0.023527741 -0.18014324 0.10492698 -0.22826906 -0.31820044 0.12890044
-0.34134197 0.41023657 -0.4179898 0.50660956 0.05760739 -0.23703256 0.16989142 -0.07891138
-0.0058244877 -0.060284503 0.3199263 -0.71127146 -0.3174681 0.36547816 -0.009524518 -0.058881987
0.3190343 -0.50927263 -0.061252188 -0.0010009222 -0.17495148 0.4358856 -0.54260427 0.025408745
0.3631839 -0.1330977 -0.37944123 -0.15918428 0.25050768 -2.2547207 -0.391916 0.6228334
-0.2884619 0.019911619 -0.042208623 0.4104564 -0.054209083 -0.00072690414 -0.007901984 -0.021590207
0.16138741 0.22042339 0.3811796 -0.38586178 -0.4233619 -0.45319638 -0.6086834 0.24859034
-0.0071274936 -0.09427885 -0.5269736 -0.16625112 -0.10335377 0.10137591 -0.23832257 0.3218406
-0.7039728 -0.068265915 -0.65703034 -0.42664412 -0.32833773 0.5417607 -0.5721681 0.14576645
0.10873668 -1.0297992 0.21480882 -0.20752014 0.20075443 -0.38959977 -0.09765077 -0.5752667

fc1.bias f4 [128]
00000000: af77 223f acf9 86c0 7766 28be e7e3 3340
00000010: ec46 45c0 b6df 803e 6bb1 22bf 3f6f c1bf
00000020: cb4a 013f 61c9 4540 cccd 4a40 9875 61c0
00000030: 6b90 5f40 0026 f13d f71b 9c3e 0a4e b93e
00000040: 2f0a ab3f 8876 b33f 08ac 07be 45da 9fbe
00000050: ca7d 71c0 9431 dcbe 7d1b b1be 9efa eb3e
00000060: b973 1a3f 209e 8dbd 70a0 723e 8034 703e
00000070: fbe7 af3f c962 d83f 3f3b 08c0 7fe3 8ec0
00000080: 28a7 c8bf f853 d23d 7466 be3f 8c18 2dbe
00000090: 491f 64c0 f8d6 1e40 f49a 7fbf 91a3 163f
000000a0: 7ca9 3040 f200 bc3e e36e 88be 1302 5b3f
000000b0: fd40 4dc0 a02c 193e 923a 4440 031b 68c0
000000c0: 6a16 873e a092 b1bc 915c 333f c011 10bc
000000d0: d2b1 4cc0 a0ff 02bd 45bb 9740 7217 2840
000000e0: 9814 8740 1673 f43e 6279 ad3f 45ee 063f
000000f0: 0eb6 a63e c7b9 f73f 66fd 0d40 f18c abc0
00000100: 434c 023f 11d6 263f 556b 60bf afcb 283f
00000110: 651d 1b40 9539 8640 b34a 8a3f e597 bf3f
00000120: 5246 3bc0 0663 ddbf 4632 8540 6b04 9840
00000130: 5b45 4fc0 3e0d 3b40 5555 4f40 fd03 f2be
00000140: 6253 2640 a09c 963d 970e 32bf 9e69 a740
00000150: 0bad 15bf f50b f3bf cc25 3b3f 6435 1a3e
00000160: 7c4f 343f ce42 56be 8c76 89c0 ee0b 52c0
00000170: 17c5 a2c0 c535 18be 8914 9bc0 71a8 3f40
00000180: fe38 4a40 f18a 74c0 7790 6940 dd6a 5940
00000190: 537a 9bbf 3bd0 0f40 c1fd 7240 3559 333f
000001a0: 416d 89c0 2f6a c0be 453c bbbf 9236 74bf
000001b0: 8f3a b4be deb1 60c0 bd43 8a3e 8702 a13f
000001c0: a471 4a40 b183 8c40 266b fb3e a66b f93f
000001d0: d058 a040 0256 f83e 331f 0ec0 ce41 ebbf
000001e0: 5c38 cabe e0c4 743d 0361 29c0 51c4 663f
000001f0: 3134 babd 2813 9c40 870c 85c0 28ef 0cbe
0.6346387 -4.2179775 -0.16445337 2.810785 -3.0824537 0.25170678 -0.6355197 -1.5112075
0.5050475 3.0904162 3.1688108 -3.5228024 3.4931896 0.11774826 0.30490085 0.36192352
1.3362483 1.4020548 -0.13249218 -0.31221214 -3.7733026 -0.43006575 -0.34591284 0.46089643
0.6033283 -0.069149256 0.23694015 0.23457527 1.374267 1.6905147 -2.128616 -4.4652705
-1.5676012 0.10269922 1.4875016 -0.16903895 -3.5644095 2.4818707 -0.99845815 0.5884333
2.7603445 0.3671947 -0.266471 0.8555004 -3.2070916 0.1495843 3.0660748 -3.6266487
0.26384288 -0.021676362 0.7006312 -0.008793294 -3.1983533 -0.031982064 4.74161 2.626431
4.221264 0.47744054 1.3552668 0.5270732 0.32560772 1.935357 2.2185912 -5.3609548
0.50897616 0.6517039 -0.87663776 0.65935796 2.423669 4.194529 1.0804046 1.496823
-2.926167 -1.7295845 4.162387 4.7505393 -3.2386081 2.9226832 3.2395833 -0.47268668
2.5988393 0.073540926 -0.6955351 5.2316427 -0.5846717 -1.8988024 0.7310455 0.1505943
0.70433784 -0.20923921 -4.295721 -3.2819781 -5.086559 -0.14864261 -4.8462567 2.9946558
3.1597285 -3.8209803 3.6494424 3.3971474 -1.2146705 2.2470844 3.796738 0.70057994
-4.2945867 -0.37581012 -1.4627768 -0.9539577 -0.35200927 -3.5108562 0.27004805 1.2578896
3.163186 4.3910756 0.49105185 1.9485977 5.0108414 0.4850312 -2.2206542 -1.8379457
-0.39496124 0.059758067 -2.6465461 0.90143305 -0.09091986 4.8773384 -4.157779 -0.13763106

fc2.weight f4 [4, 128]
00000000: d582 b33d 94f3 00be b54d 7d3b feca 433c
00000010: f5e1 803c c165 3cbd 1c52 6ebd 7708 693f
00000020: c4db a63c e13f 963c 2852 a43c 910f a73d
00000030: 6b8d 5d3c 1474 c4bc 8552 79bd 78dc debc
00000040: cb5a ce3c b928 52bc 39e6 963d 0ce4 79bd
00000050: 3bf8 113c 3680 663d 7695 693d 6a2b 2c3d
00000060: 7013 47bc e296 303d 929e a8bd 0e9c e83d
00000070: 6e67 e23c cb1a 71bc f926 183d edf7 c23d
00000080: fe14 57bd 1cb8 a7bd d6b1 213f 6319 823d
00000090: 5ba7 a3bc 9f2e 9dbe 2a77 86bc b5c3 a2be
000000a0: 5864 1b3d b59f 883d 3ea4 723d 4c64 4e3c
000000b0: 7dfe 73bd 8560 11bd 89ce 8bbc a386 8a3c
000000c0: d47c 133d e6e6 eebc 8790 2cbd 6c16 86bd
000000d0: 1e37 eabb 61fd 41bd 1beb fa3c 2713 3e3d
000000e0: af71 0abe 2add 12bd be59 cabc f241 e2bc
000000f0: 12ec 4a3d daf0 a1ba c251 e3ba ff16 15bd
00000100: 12db b0bd 00c2 123b 60c4 d1bd 7f1b 05bd
00000110: f24e f7be 6287 0b3d 0c7e 9b3d 9911 8abc
00000120: 7081 c0bd 1c43 ebbc e967 f13c 0561 143d
00000130: a71a 9dbe 117b 2fbe 84b4 0e3d 70e4 ba3b
00000140: fac0 0b3e e408 893c e091 17bc dee0 813d
00000150: b088 91bb 5692 883e 2142 a23d 6ca6 a3bc
00000160: 944b 083c 3709 8a3d 0537 8b3d f6c1 35be
00000170: d653 803d 498d c53b 9980 d4bd 1e16 36bc
00000180: a476 ebbc a465 e83c cb5d 943d 1346 a13c
00000190: 652c 563d 6adc b23c 5f4a 9d3d 7690 9abd
000001a0: a153 0e3e 0cbe ad3c 604a cfbd 4076 063b
000001b0: 1af3 413d 2af1 843c 7c74 f83c 7e7b 3c3d
000001c0: b2ae 953d 6d8f 0ebe 2814 b13c 40d0 e93e
000001d0: f207 263e 279f 9f3d dd90 513d 2b46 973d
000001e0: 24fa d53c ba7e 503d 545f 9e3d 254c cabe
000001f0: 9e9b f13d 045f d33d 844b d3bc d98b 93bd
00000200: c87c bdbc 697f 4dbe a898 8ebd eb7f 723d
00000210: 1610 bf3c 22d7 a3bd aadf 633d bcba 47bf
00000220: 7833 5abd b73c 023c 755f 343d 7f01 c33c
00000230: 9f5d 883b 8eb6 1d3d 2141 50be 6705 31bd
00000240: 86f7 f43e 7e5a 43bd d58d 9d3d 1ae4 afbd
00000250: 55dd 10bd a0c5 67bc abf9 803d bb4f 9cbd
00000260: 82a4 6d3d 7b6a 9ebd 4764 8fbd f0a7 46be
00000270: 5048 883d 7c3f 56bc 162a 34bc d780 e7bc
00000280: 1e93 38bd b12e b23d e381 e33d c09a 11bb
00000290: ef8c fc3c df1e 203e 5dfe 6f3d df14 643d
000002a0: 8750 a43c a2fe 3d3d 1507 a3bd b4c8 693c
000002b0: d2da 16bc b8a8 0d3c 9ca8 60bc 36ef 00bd
000002c0: c4cf 91bc 5caf 51bd 963e 2c3d 6cca 65bd
000002d0: 7704 b43c bcef 8abc f718 a0be dd45 81bb
000002e0: 7334 2fbe 988b 47bc da04 9abe 2071 17bc
000002f0: 3438 a1bc 82a5 2cbc a7de ea3c 5918 cd3d
00000300: f0c0 cb3b 0869 debc a832 193d d276 5b3d
00000310: 0b2d a13d 6538 ce3c 80f5 05bc 3208 28bd
00000320: c9d2 7fbd 8532 d7bc 6ffb de3c 849b 163e
00000330: 4b40 4cbe 8c03 8ebe 35ee 623d d8d2 ae3c
00000340: d99c 243f 69d9 913d b169 5e3c 3910 883d
00000350: 18b5 10bc 3128 d1be fd11 f7bc 8750 47bd
00000360: 57bb 02bc 4e6e 263d 39c8 6bbd 2b80 ccbc
00000370: c951 69bd bc9e 9cbd 3c2b e8bb 6e66 b73d
00000380: 2e35 0dbd 415e 76bc 1d18 843d 21a1 23bd
00000390: e1c4 40bd 9cb2 e8ba f0f7 aa3c ce74 4a3d
000003a0: 8503 f23b c00e a23b 9f83 8940 bd55 a2bd
000003b0: 048f 67bc 2969 e73d 32a5 96bb eca3 b5b8
000003c0: b2e9 9b3d 148a 933d 0809 31bc a1d6 9a3e
000003d0: 33f7 88bd 248b 38bd 71d2 ca3d f498 63be
000003e0: 0b66 37bd 8052 fdba 330e f5bd 1b8e 0b3e
000003f0: cffd 843e d964 973d 1ace 873d c69e 303d
0.087651886 -0.12592918 0.0038651053 0.011950253 0.015732745 -0.045995478 -0.058183774 0.9102854
0.020368464 0.018341007 0.020058706 0.08157266 0.013522486 -0.023981132 -0.060869712 -0.027204737
0.025189778 -0.012827092 0.0736813 -0.061008498 0.00890928 0.056274615 0.057027303 0.04203359
-0.01215063 0.043112643 -0.0823337 0.1135789 0.02763721 -0.014715861 0.037146542 0.09519944
-0.052510254 -0.08189413 0.6316198 0.063524984 -0.019977262 -0.30699632 -0.016414244 -0.31789938
0.037937492 0.06671087 0.059238665 0.012597155 -0.05956887 -0.03549244 -0.017066257 0.016909903
0.036007717 -0.029162835 -0.04213002 -0.065472454 -0.0071476838 -0.04736078 0.030629685 0.046404984
-0.1351993 -0.03585545 -0.024700996 -0.027619336 0.04954154 -0.0012355105 -0.0017343091 -0.036398884
-0.08635534 0.0022393465 -0.10242534 -0.032496925 -0.48302418 0.034064658 0.07592401 -0.016854094
-0.09399688 -0.028718524 0.029468494 0.036225338 -0.30684397 -0.1713679 0.034840122 0.0057035014
0.13647833 0.016727872 -0.009251088 0.06341718 -0.0044413432 0.26674145 0.07922769 -0.019976817
0.0083188005 0.06740039 0.067976035 -0.17749771 0.062659904 0.0060288054 -0.103760906 -0.011113672
-0.028743096 0.028368779 0.07244452 0.019686734 0.05228843 0.021833617 0.07680201 -0.07547085
0.1389909 0.021208785 -0.10121608 0.002051726 0.04735098 0.016228277 0.030328982 0.04601621
0.07308711 -0.139219 0.021616057 0.45666695 0.16213968 0.07794028 0.051163543 0.0738643
0.026120253 0.050902106 0.07733026 -0.3951122 0.1179726 0.10320857 -0.025792845 -0.07204408
-0.02313079 -0.20068134 -0.069627106 0.059204023 0.0233231 -0.08000018 0.055633225 -0.7801931
-0.05327174 0.007949046 0.044036347 0.023804424 0.004161551 0.038504176 -0.20337345 -0.043218043
0.47845095 -0.047693722 0.07693068 -0.08588429 -0.03536733 -0.014146239 0.062976204 -0.07632395
0.058018215 -0.07735153 -0.07001548 -0.194 0.066544175 -0.013076659 -0.010996362 -0.028259678
-0.045062177 0.08700312 0.11108758 -0.0022217482 0.030828921 0.15636776 0.05859219 0.055683967
0.02005793 0.046385415 -0.07960335 0.014269043 -0.009207444 0.008646183 -0.013712075 -0.03147813
-0.017799266 -0.051192626 0.042051874 -0.056101248 0.021974785 -0.016960017 -0.31269047 -0.003945096
-0.17109852 -0.012179278 -0.30081826 -0.00924328 -0.01968012 -0.010537507 0.028670622 0.100144096
0.0062180683 -0.027149692 0.037401825 0.053580113 0.078699194 0.025173375 -0.008176208 -0.04102344
-0.06245688 -0.026269207 0.027219502 0.14707762 -0.19946401 -0.2773708 0.055402953 0.021340773
0.6430183 0.07121546 0.0135750035 0.06643719 -0.008832239 -0.40850976 -0.030159945 -0.04866078
-0.007979236 0.04063254 -0.057563994 -0.024963459 -0.056962762 -0.07647464 -0.007085232 0.08955084
-0.034474544 -0.01503712 0.06449912 -0.039948586 -0.04706276 -0.0017753425 0.020870179 0.0494278
0.0073856735 0.004945606 4.297317 -0.079265095 -0.014133219 0.112993546 -0.0045973295 -8.6612854e-05
0.07612933 0.07204071 -0.010805376 0.30241874 -0.066877745 -0.04505457 0.0990342 -0.22226316
-0.04477505 -0.0019326955 -0.11965599 0.13628428 0.2597489 0.07392282 0.06631108 0.04312017

fc2.bias f4 [4]
00000000: eb1c 893e 16de 8c3f e1fd 7640 7cf5 a73f
0.26779875 1.1005275 3.8592455 1.3121791
